trained_models/a2c/HuntMiniPacmanNoFrameskip-v0.pt (torch_old, 806371 bytes, 9 tensors)

policy.conv1.weight f4 [16, 3, 3, 3]
0	0x3c44b3a6	0.012005722
1	0x3e20dd15	0.15709336
2	0xbd92da69	-0.07170565
3	0xbde7e1a9	-0.11322338
4	0xbdc7fd65	-0.09765128
5	0xbe4115c4	-0.18855959
6	0x3e68d27f	0.22736548
7	0xbe4ad548	-0.19807923
8	0x3d8f96eb	0.07011207
9	0x3e22ad5e	0.15886447
10	0x3ee3b5d8	0.44474673
11	0xbf113c94	-0.5673306
12	0xbe92dbae	-0.28683227
13	0x3e3f8495	0.1870292
14	0xbf132df7	-0.5749201
15	0x3e9b9936	0.30390328
16	0x3f103fce	0.5634736
17	0xbe5f5008	-0.21807873
18	0x3d1d9c4e	0.038479142
19	0xbe2dc27e	-0.16968724
20	0x3bab1620	0.0052211434
21	0xbe4b9be7	-0.19883691
22	0x3e9a11c5	0.30091682
23	0x3f678f11	0.90452677
24	0x3d49b9a5	0.04924931
25	0xbeb3c745	-0.35112968
26	0x3e366b9f	0.17814492
27	0x3d890ec9	0.06692273
28	0xbe176df0	-0.14788032
29	0xbd9a6e47	-0.07540565
30	0xbc32fd05	-0.010924582
31	0xbe2edb40	-0.17075825
32	0xbe9ff6d3	-0.31243
33	0xbe35177f	-0.17684744
34	0xbe6f860b	-0.23390977
35	0xbc5a04b2	-0.0133067835
36	0x3dc510a9	0.09622318
37	0x3dc7389c	0.09727594
38	0x3eeb31f9	0.45936564
39	0x3e9b9555	0.3038737
40	0xbe76f96e	-0.24118587
41	0xbf127788	-0.5721364
42	0xbd99e3e4	-0.0751417
43	0x3ec4cfe6	0.38439864
44	0xbf637ca2	-0.8886205
45	0x3e93abe6	0.28842086
46	0x3ea8e3b7	0.32986233
47	0xbe83c1f2	-0.25733906
48	0x3f422a4e	0.758458
49	0x3e51ea23	0.20499472
50	0xbdb7451a	-0.08948727
51	0x3e8d7211	0.27626088
52	0x3cd61dda	0.026137281
53	0x3d82c6d3	0.06385579
54	0x3e682613	0.22670774
55	0xbc3129c2	-0.0108131785
56	0x3e190431	0.14943005
57	0xbf144eba	-0.5793263
58	0x3e26cc0f	0.1628878
59	0xbef0de9a	-0.47044832
60	0x3da906fa	0.08253284
61	0x3f02afd3	0.51049536
62	0xbde196ae	-0.11015068
63	0xbf1297a2	-0.57262623
64	0x3da016ca	0.07816847
65	0xbe70c047	-0.23510848
66	0xbd2c7017	-0.042099085
67	0xbdf469a9	-0.119342156
68	0xbe4dea16	-0.20108828
69	0x3e9f2bdb	0.31088147
70	0x3e723a09	0.23654951
71	0xbeb45fb1	-0.35229257
72	0xbcc0b45d	-0.023523504
73	0x3e57b63c	0.2106561
74	0x3eb91876	0.36151475
75	0xbedef563	-0.4354659
76	0x3df98b5e	0.12184785
77	0x3f00ad31	0.5026427
78	0x3d8eea5d	0.06978295
79	0x3cadc6f8	0.02121304
80	0xbf3833a1	-0.7195378
81	0xbdc16d1c	-0.09444639
82	0x3cf305d3	0.029665863
83	0xbdc5f79b	-0.096663676
84	0xbcf9ee78	-0.030509219
85	0xbdbffe23	-0.093746446
86	0xbcd92542	-0.026507024
87	0x3f4be02e	0.79638946
88	0x3f760be8	0.9611192
89	0xbf27df0d	-0.65574723
90	0xbc70478c	-0.014665496
91	0xbd464d5c	-0.04841362
92	0x3e3bafb8	0.1832875
93	0x3e6289ea	0.22122923
94	0xbe7bf35a	-0.2460455
95	0x3d9bcf37	0.076078825
96	0xbe32d483	-0.1746388
97	0x3d85cd6e	0.06533323
98	0xbc0e01fb	-0.008667464
99	0x3e990726	0.29888266
100	0xbccb3ffd	-0.024810785
101	0x3e5fbc90	0.21849275
102	0x3f1d81ea	0.6152636
103	0xbdcb0e21	-0.09914804
104	0xbd85d2fc	-0.06534383
105	0xbe0b3f76	-0.13598427
106	0xbdb6a481	-0.089180954
107	0xbe45d8c3	-0.1932097
108	0x3e8f5781	0.27996448
109	0x3f0bed49	0.54658943
110	0x3e0eb434	0.1393593
111	0xbf0f9893	-0.56092185
112	0x3e2f2bd8	0.17106569
113	0x3d9e6dd5	0.077357925
114	0x3e6dd46c	0.23225564
115	0xbf17bf22	-0.5927602
116	0xbd1f41ce	-0.038881116
117	0x3f0526cc	0.52012324
118	0xbf4362ec	-0.7632282
119	0x3d9f50bd	0.077790715
120	0x3e521fa0	0.20519876
121	0xbe478534	-0.19484407
122	0xbd84e49d	-0.06488917
123	0xbef091f5	-0.46986356
124	0xbedc40c7	-0.4301817
125	0xbd7b9813	-0.061424326
126	0x3e830352	0.2558847
127	0x3f4009cc	0.7501495
128	0x3c5d29b2	0.0134987105
129	0xbef7a444	-0.48367512
130	0x3e0ad5df	0.13558148
131	0x3f00eae5	0.5035842
132	0x3d3355b9	0.043782923
133	0x3daef018	0.08541888
134	0xbe00d1c4	-0.12580019
135	0x3bf69e36	0.0075261844
136	0x3e185083	0.14874463
137	0x3c80b723	0.015712326
138	0xbe7186f2	-0.23586634
139	0x3dc51a92	0.096242085
140	0xc00eb4c2	-2.2297826
141	0x3e3e9b2e	0.18613884
142	0x3ec1557d	0.37760535
143	0xbd0da6b2	-0.0345828
144	0x3d853590	0.06504357
145	0xbd4c1f19	-0.049834345
146	0x3e8ddb6c	0.27706468
147	0x3dc18016	0.094482586
148	0x3e4b2e4f	0.19841884
149	0xbf099fb4	-0.5375931
150	0x3e419d35	0.18907626
151	0x3e814483	0.25247583
152	0xbe8aaa94	-0.27083266
153	0xbea7f7a6	-0.32806128
154	0x3dee554c	0.11637363
155	0x3e147d59	0.14500941
156	0xbed56e5a	-0.41685754
157	0xbcd1b783	-0.0256002
158	0xbfcf0e38	-1.6176214
159	0x3e8b7110	0.27234697
160	0x3c27ca20	0.010241061
161	0xbd838ee7	-0.06423741
162	0xbd3fdaf2	-0.046839662
163	0x3ee68e05	0.45030227
164	0x3e7e7960	0.24850988
165	0xbdec823b	-0.11548277
166	0x3d94840b	0.07251748
167	0x3e982c99	0.29721525
168	0xbec651c2	-0.3873425
169	0xbf6a6e01	-0.915741
170	0x3dd644c1	0.104623325
171	0x3ecd263b	0.4006823
172	0xbddb2d9e	-0.1070206
173	0xbd997c1c	-0.07494375
174	0xbe041efe	-0.12902448
175	0x3d5edd1a	0.054410078
176	0xbddd1085	-0.107941665
177	0x3e5e2605	0.21694191
178	0xbe968518	-0.29398417
179	0xbe137adb	-0.14402334
180	0x3f66f42b	0.9021632
181	0x3e3189f5	0.17337783
182	0xbf1d7edb	-0.6152169
183	0x3ea01897	0.3126876
184	0x3ec5b694	0.3861586
185	0xbe78567d	-0.24251743
186	0xbd9ffeda	-0.07812281
187	0xbd262c1c	-0.04056941
188	0x3e3e7159	0.18597926
189	0x3f250af6	0.6446985
190	0xbf070287	-0.5273823
191	0xbe1de512	-0.15419415
192	0xbd6fc74f	-0.058539685
193	0x3dc76ef3	0.09737959
194	0x3a73be79	0.0009298097
195	0x3e79bb0f	0.24387763
196	0x3ecae01c	0.39624107
197	0x3d56354f	0.052296933
198	0xbd515e50	-0.051115334
199	0x3d3d4959	0.046212528
200	0x3e57b8d4	0.210666
201	0xbb9c78b4	-0.004775131
202	0xbd9d7ebe	-0.0769019
203	0xbe4f6aaa	-0.20255533
204	0x3ea2b506	0.31778735
205	0xbe3e8ab2	-0.18607596
206	0x3ea16ac9	0.31526783
207	0x3e47d54e	0.19514963
208	0xbc346aba	-0.011011774
209	0x3ed8f07d	0.42370978
210	0xbf0cbceb	-0.54975766
211	0xbc9121aa	-0.017716248
212	0xbe92136b	-0.2853044
213	0x3de3ef6b	0.1112965
214	0x3e591427	0.21199094
215	0xbeadf03d	-0.3397235
216	0x3d9e1b48	0.07720047
217	0x3dca262f	0.09870564
218	0xbe36c2b6	-0.17847714
219	0xbea0db0f	-0.31417128
220	0x3fd364a0	1.6515083
221	0xbfe8269d	-1.8136784
222	0xbdc35271	-0.09537209
223	0x3de2708b	0.11056622
224	0x3d3d9131	0.046281043
225	0xbc995720	-0.018718302
226	0x3e3f16b4	0.18661004
227	0xbe8cf936	-0.27533883
228	0x3e4d6f9b	0.20062105
229	0xbeee8aea	-0.46590358
230	0x3debd455	0.115151085
231	0xbe153799	-0.1457199
232	0x3e88aa6f	0.2669253
233	0x3c65b88f	0.014021053
234	0x3e379904	0.17929465
235	0x3e7fdace	0.24985811
236	0xbe1e444b	-0.15455739
237	0x3e95befb	0.2924727
238	0xbe5f3bb2	-0.21800116
239	0x3e9ad44e	0.302401
240	0xbe01ae0d	-0.12664051
241	0x3e372e3c	0.17888731
242	0x3de357aa	0.11100705
243	0x3e8f34b5	0.279699
244	0xbc2bd9ee	-0.01048897
245	0x3ea2c2b3	0.3178917
246	0xbd8d4975	-0.068987764
247	0x3d65c3e3	0.056095015
248	0xbe8e5092	-0.27795845
249	0x3d476c40	0.04868722
250	0x3e3cbddc	0.184318
251	0x3e2ee85d	0.17080827
252	0x3d4112fb	0.04713724
253	0x3d32db57	0.04366621
254	0xbed52b12	-0.41634423
255	0xbf3c0ef8	-0.7346034

policy.conv1.bias f4 [16]
0	0xbf1b8674	-0.60752034
1	0xbebd77cd	-0.37005463
2	0xbeaa2437	-0.33230755
3	0xbf082de3	-0.5319502
4	0xbe5fedc6	-0.21868047
5	0x3ed37390	0.41299105
6	0xbf3da3d0	-0.74078083
7	0xbf38a13d	-0.7212103
8	0xbf5837c9	-0.8446012
9	0xbf458a52	-0.77164185
10	0xbf75edd4	-0.9606602
11	0x3e15bc3d	0.14622588
12	0x3d82c7f0	0.06385791
13	0xbe4914b4	-0.19636804
14	0xbf2cd755	-0.6751607
15	0xbf0182b1	-0.50590044

policy.conv2.weight f4 [16, 16, 3, 3]
0	0x3d8775ec	0.06614289
1	0x3f476994	0.77895474
2	0x3cf3abed	0.029745067
3	0x3e832e44	0.25621235
4	0xbe94e4da	-0.2908085
5	0xbdba4ef1	-0.09097088
6	0x3f071157	0.52760834
7	0xbe8f8af5	-0.28035703
8	0x3e9af8e2	0.30268008
9	0xbf79ef07	-0.9763035
10	0xbf295a30	-0.6615324
11	0x3ea2d4d4	0.31803
12	0xbe483fec	-0.19555634
13	0x3eb5adcb	0.35484156
14	0xbee0c235	-0.43898168
15	0x3ed41463	0.41421804
16	0xbe6ba389	-0.23011602
17	0xbdd5f9da	-0.10448046
18	0x3ed5d5a0	0.41764545
19	0xbe40b703	-0.18819813
20	0xbf19ed3b	-0.6012761
21	0x3f084fc7	0.5324673
22	0xbd051a50	-0.032495797
23	0xbe9bb6c2	-0.3041287
24	0xbeec3886	-0.46136874
25	0x3f461dab	0.7738902
26	0x3e946638	0.28984237
27	0x3e605698	0.21908033
28	0xbf094dbf	-0.53634256
29	0xbea57d5c	-0.32322204
30	0x3c8c8f69	0.017158227
31	0xbf2a5682	-0.6653825
32	0x3e24e7e7	0.16104089
33	0xbcf2e3d7	-0.029649658
34	0xbd68bb9f	-0.056819554
35	0xbe814a81	-0.25252154
36	0x3e49de40	0.19713688
37	0xbedfccdb	-0.4371098
38	0x3e7950b5	0.24347194
39	0x3f0908da	0.5352913
40	0x3f012237	0.5044283
41	0xbeb670d8	-0.35632968
42	0x3ccf900f	0.025337247
43	0xbeab5b96	-0.33468312
44	0xbe83a138	-0.25708938
45	0x3e02ac3e	0.12761018
46	0x3e8ddeeb	0.27709135
47	0xbe86920c	-0.262833
48	0x3edc0b7f	0.4297752
49	0x3e2c9c0c	0.16856402
50	0xbf15e190	-0.58547306
51	0xbe352de3	-0.17693286
52	0xbe860e96	-0.26183003
53	0x3e354358	0.17701471
54	0xbe442297	-0.1915382
55	0xbe18ad8f	-0.14909957
56	0xbe391595	-0.18074639
57	0xbf2c01ed	-0.6719044
58	0x3eb722f1	0.35768846
59	0x3de7fb16	0.11327188
60	0x3d43f650	0.047842324
61	0x3cb9f217	0.022698445
62	0x3e55fee9	0.20898022
63	0xbe813b44	-0.2524053
64	0x3ef2f8a4	0.47455323
65	0xbf5d36cc	-0.8641174
66	0x3e42f603	0.19039159
67	0xbeeaac8b	-0.45834765
68	0x3e8e93e2	0.278472
69	0x3f8b91dc	1.0903888
70	0xbc8f1aee	-0.017468896
71	0x3f22317a	0.63356745
72	0x3e99c4e5	0.3003303
73	0x3d07d60b	0.03316311
74	0xbea537c6	-0.32269114
75	0x3f67f10b	0.9060218
76	0x40030122	2.0469441
77	0xbe8533a0	-0.2601595
78	0x3e4b9045	0.19879253
79	0xbe8a49db	-0.27009472
80	0xbe8dc339	-0.27688006
81	0xbc441973	-0.011968958
82	0xbe52a108	-0.20569241
83	0x3f288eda	0.65842974
84	0xbf3c2607	-0.73495525
85	0x3fc87b4c	1.5662627
86	0x3dbaae70	0.091153026
87	0x3e0fc22f	0.14038919
88	0x3ecad5ca	0.39616233
89	0x3e4ba748	0.19888031
90	0x3eb17023	0.34655866
91	0x3dfb3532	0.122660056
92	0xbe5a1c17	-0.21299778
93	0x3e5447f3	0.20730571
94	0x4064b57d	3.5735772
95	0xbefe817d	-0.49708167
96	0x3efe5469	0.49673775
97	0xbe56779f	-0.2094407
98	0xbe87efc8	-0.26550126
99	0x3e50f001	0.20404054
100	0xbc474154	-0.0121615715
101	0xbe90bbde	-0.2826833
102	0xbcd4c5b8	-0.025973186
103	0x3e781dad	0.2423007
104	0x3e793656	0.24337134
105	0xbf78d67c	-0.9720228
106	0xbe1808da	-0.14847127
107	0xbedfd413	-0.43716487
108	0xbe0ebbcd	-0.13938828
109	0x3e3e1962	0.1856437
110	0xbf7f2caf	-0.99677557
111	0xbde645fe	-0.11243819
112	0xbe55a948	-0.20865357
113	0x3eae63ea	0.34060603
114	0xbf8b9300	-1.0904236
115	0x3e479ec5	0.1949416
116	0x3dc1efa0	0.09469533
117	0xbd443e3e	-0.04791092
118	0x3e6bc4f9	0.23024358
119	0xbebf1bf0	-0.37326002
120	0xbf0736c9	-0.5281797
121	0xbe7ead01	-0.24870683
122	0x3ed6c6a5	0.4194843
123	0xbda56b01	-0.0807705
124	0x3ebb79e8	0.36616445
125	0xbe3233e3	-0.17402606
126	0xbf88b81b	-1.0681185
127	0x3f5f110b	0.8713538
128	0xbd10fc60	-0.035396934
129	0x3e422415	0.18959077
130	0xbe0e4392	-0.13892964
131	0x3eb66a1d	0.35627833
132	0x3e236e8b	0.15960138
133	0xbf282986	-0.6568836
134	0xbe10400b	-0.1408693
135	0xbe0b4efe	-0.13604352
136	0x3fa6108f	1.2973803
137	0x3e6805c9	0.22658457
138	0xbe2e64fe	-0.17030713
139	0xbd70d387	-0.05879548
140	0xbc82da54	-0.015973248
141	0x3e398dd7	0.18120514
142	0xbf0d4ce7	-0.5519547
143	0xbe1d98d8	-0.15390337
144	0x3e56e633	0.20986252
145	0x3f7e71ac	0.993922
146	0xbec23f3e	-0.37938875
147	0x3da7d228	0.08194381
148	0x3dde56a0	0.10856366
149	0xbe62911d	-0.22125669
150	0x3d386299	0.045015905
151	0x3d26b714	0.04070194
152	0xbe96deb4	-0.29466784
153	0x3e76560e	0.24056265
154	0x3e0f50d9	0.13995685
155	0xbdf660e1	-0.12030197
156	0xbdf4e440	-0.11957598
157	0x3e985aba	0.2975672
158	0x3ec4a7b8	0.3840921
159	0x3ee1a05d	0.4406766
160	0xbeb84d5f	-0.3599653
161	0xbd90a660	-0.070629835
162	0x3e80dc21	0.25167945
163	0x3eb526f6	0.35381287
164	0xbf90f4e1	-1.1324731
165	0x3ed5bd3c	0.41745937
166	0xbe0ce46b	-0.1375901
167	0x3f80bf18	1.0058317
168	0xbe4ca7ce	-0.19985887
169	0x3e5c5084	0.2151509
170	0x3db4058d	0.08790121
171	0xbdab3eee	-0.08361612
172	0xbec5fa77	-0.38667652
173	0xbd07da09	-0.03316692
174	0x3f2146b0	0.62998486
175	0xbe1fcfd5	-0.15606625
176	0xbe0d6bc1	-0.13810636
177	0xbcb6c043	-0.022308474
178	0x3e65f2af	0.22455858
179	0xbdd3bea8	-0.10339099
180	0xbfb391ce	-1.4028871
181	0x3df06f13	0.11739936
182	0x3d840f2a	0.06448205
183	0xbe1756e2	-0.14779237
184	0xbeb0d047	-0.34533903
185	0x3ee8b6fe	0.45452112
186	0xbea2e6f9	-0.31816843
187	0x3e0092f8	0.12556064
188	0x3e209879	0.15683164
189	0xbeec0f63	-0.4610549
190	0x3e88a1f4	0.2668606
191	0xbf96daf3	-1.1785568
192	0x3e7ebcff	0.24876784
193	0x3e676584	0.22597319
194	0x3ea7dc13	0.3278509
195	0xbe54f84a	-0.2079784
196	0x3e69b486	0.2282277
197	0x3e197aa7	0.14988194
198	0xbd84905f	-0.06472849
199	0x3e9f68ac	0.31134546
200	0x3d0ed16b	0.034867685
201	0xbf0c8645	-0.5489238
202	0x3e3c0c58	0.18364084
203	0xbe82917c	-0.2550162
204	0x3b218f94	0.002465223
205	0x3d95f23a	0.07321592
206	0xbd9d9747	-0.076948695
207	0xbd731b56	-0.05935224
208	0x3dfbbde1	0.12292076
209	0x3e868295	0.262715
210	0xbe1dc9e7	-0.15409051
211	0x3ea16d7c	0.31528842
212	0xbe96cb6d	-0.29452077
213	0xbd5ef85b	-0.05443607
214	0x3ecc1381	0.3985863
215	0xbdba7327	-0.09103995
216	0xbdea6de8	-0.11446744
217	0xbee04b3c	-0.438074
218	0x3d4ce9c0	0.05002761
219	0x3ebce416	0.36892766
220	0x3f2361ce	0.63821113
221	0x3d17e35c	0.03708206
222	0xbf223f35	-0.63377696
223	0x3e358ef6	0.17730317
224	0x3e18e76d	0.14932032
225	0xbd35930d	-0.04432969
226	0x3da7c691	0.081921704
227	0xbd0df52f	-0.034657653
228	0x3c848604	0.016177185
229	0x3e535e10	0.20641351
230	0x3f00d69a	0.50327456
231	0x3f28dc88	0.65961504
232	0x3e82fbd2	0.2558275
233	0x3e181e12	0.14855221
234	0x3de577b7	0.112044744
235	0xbd058481	-0.03259707
236	0x3d153722	0.036429532
237	0xbd4f01e7	-0.050538924
238	0xbf838166	-1.0273864
239	0xbec753fe	-0.38931268
240	0x3fa0c910	1.256136
241	0x3d8908ef	0.06691157
242	0xbd915bee	-0.07097612
243	0x3ea94c32	0.33065945
244	0xbf2f4aeb	-0.6847369
245	0x3e714028	0.2355963
246	0xbe454a8d	-0.1926672
247	0xbe80ca53	-0.2515436
248	0x3e3e3d7b	0.1857814
249	0x3e5b4650	0.21413541
250	0x3ec0cde3	0.3765708
251	0xbe9eac9a	-0.3099106
252	0xbf356097	-0.7085051
253	0xbfd30929	-1.648717
254	0x3f869238	1.0513372
255	0xbd73a931	-0.059487525

policy.conv2.bias f4 [16]
0	0xbf7fcfcd	-0.99926454
1	0xbf0f8df5	-0.56075984
2	0xbecacf60	-0.3961134
3	0xbeff77d7	-0.49896118
4	0xbf6d156c	-0.9261081
5	0xbf2b7a2c	-0.66983294
6	0xbf3b96b2	-0.7327682
7	0xbf5e18cb	-0.8675658
8	0xbd8ddb20	-0.069265604
9	0xbf29c890	-0.6632166
10	0xbf004d2c	-0.50117755
11	0x3e8e84a3	0.2783557
12	0xbe99913d	-0.2999362
13	0xbe0f6dae	-0.14006683
14	0xbf190a59	-0.59781414
15	0xbed8a4fe	-0.4231338

policy.linear1.weight f4 [256, 768]
0	0xbe04023c	-0.12891477
1	0xbf1e3d7b	-0.6181256
2	0xbc3c61bd	-0.011497912
3	0xbe0a1293	-0.13483648
4	0x3f81fc82	1.0155184
5	0xbe7c99bb	-0.24668019
6	0xbefbe192	-0.49195534
7	0xbd50a9ff	-0.05094337
8	0x3e0e396b	0.1388909
9	0xbed9fab2	-0.42574078
10	0xbcb4e57e	-0.022082087
11	0xbf1a62bf	-0.60306925
12	0xbf104473	-0.56354445
13	0xbeb03335	-0.34414068
14	0xbe372812	-0.1788638
15	0xbece0eeb	-0.40245757
16	0xbee67628	-0.4501202
17	0xbe0a63dd	-0.13514657
18	0xbe9b4152	-0.30323273
19	0xbe2b406b	-0.16723792
20	0xbeca0c88	-0.39462686
21	0xbf03111d	-0.5119799
22	0x3ba8f78a	0.005156462
23	0xbe1dcd60	-0.15410376
24	0xbe9b6ead	-0.30357876
25	0xbf17b2d5	-0.5925725
26	0x3d5bd371	0.053668443
27	0x3f015ea2	0.50535023
28	0xbf66ecac	-0.9020488
29	0xbe607814	-0.21920806
30	0xbf80a184	-1.0049291
31	0xbe064c9b	-0.1311516
32	0xbe4f38f0	-0.20236564
33	0xbe8ed882	-0.27899557
34	0xbf016a7d	-0.50553113
35	0x3f0a5ce2	0.5404798
36	0xbf33a20c	-0.7016914
37	0x3e825115	0.25452486
38	0xbe3999b0	-0.18125033
39	0xbeaae2e8	-0.3337624
40	0xbf362517	-0.71150345
41	0xbee35ba8	-0.44405866
42	0xbeb17acb	-0.34663996
43	0x3e1b7fd0	0.15185475
44	0x3f39fbdb	0.72649926
45	0x3e7aa675	0.24477561
46	0x3c607708	0.013700254
47	0xbf02da14	-0.5111401
48	0xbe7a0f06	-0.24419793
49	0xbd867ae0	-0.06566405
50	0xbed3e923	-0.41388807
51	0xbe743e57	-0.23851906
52	0xbdd08c59	-0.10183019
53	0xbe2d6ab6	-0.16935238
54	0xbf256d8f	-0.646203
55	0xbe2c6454	-0.16835147
56	0xbc01a17f	-0.007912039
57	0xbd81339d	-0.063086726
58	0x3e1239c6	0.14279851
59	0xbeee8aa2	-0.46590143
60	0xbe6c2c6a	-0.23063818
61	0xbe071de2	-0.13194993
62	0xbec1f012	-0.37878472
63	0xbd8c7c6d	-0.0685967
64	0x3d269a21	0.040674333
65	0xbe7e05bc	-0.24806875
66	0xbf2bc80f	-0.6710214
67	0xbf16e825	-0.58947974
68	0xbf01a025	-0.50634986
69	0xbf075013	-0.5285656
70	0x3db7b960	0.08970904
71	0xbd88228f	-0.066472165
72	0xbe1941cc	-0.14966506
73	0x3e61c3cd	0.22047348
74	0xbe8dfc3d	-0.27731505
75	0x3de061ff	0.10956191
76	0x3f0a64a5	0.5405982
77	0xbfd2bbc3	-1.646355
78	0xbcbf55e6	-0.02335639
79	0xbdd3ad8e	-0.10335837
80	0x3e60bda7	0.21947347
81	0xbe2e271e	-0.1700711
82	0xbf6e8ad1	-0.9318057
83	0xbfafcbe5	-1.3734099
84	0xbcf0752c	-0.029352747
85	0xbefbabea	-0.49154598
86	0xbe951457	-0.2911708
87	0x3e0769f4	0.13224012
88	0xbedb675d	-0.42852297
89	0xbd0aa41e	-0.03384792
90	0xbdbe7442	-0.09299518
91	0xbf6c5b45	-0.92326766
92	0xbf000ff8	-0.50024366
93	0xbe03b3a3	-0.12861495
94	0xbf2d1776	-0.67613924
95	0xbeb1eff7	-0.3475339
96	0xbe9afe89	-0.3027232
97	0xbdb93efd	-0.09045217
98	0x3f10f2d1	0.5662051
99	0xbe7a4aad	-0.24442549
100	0xbd569f60	-0.052398086
101	0xbe4f9f8c	-0.20275706
102	0xbe0fc8dd	-0.14041467
103	0xbe951442	-0.29117018
104	0xbd643e5d	-0.055723537
105	0x3e1f2548	0.15541565
106	0xbea3ece3	-0.32016668
107	0xbc5b8849	-0.013399192
108	0xbed5c89e	-0.4175462
109	0xbeb66bf2	-0.3562923
110	0xbda6842b	-0.08130678
111	0xbdaf32ac	-0.08554587
112	0x3cffcc1e	0.03122526
113	0xbf10cd2e	-0.5656308
114	0x3e360579	0.17775525
115	0xbcf63c1f	-0.030057965
116	0xbf8ab4d8	-1.0836439
117	0xbec027ff	-0.37530515
118	0x3dd7f318	0.10544413
119	0xbe99a9b9	-0.300123
120	0xbe99404d	-0.2993187
121	0x3e929925	0.28632465
122	0x3dd35b27	0.1032012
123	0xbec7b2bd	-0.39003554
124	0xbeb1501e	-0.34631437
125	0xbec25fa0	-0.3796358
126	0x3df8be2b	0.12145647
127	0xbe67f038	-0.2265023
128	0x3e340ad9	0.17582263
129	0xbe48ebe6	-0.19621238
130	0xbf6d0d95	-0.9259885
131	0xbec2ccb3	-0.38046798
132	0xbf0c47eb	-0.5479724
133	0xbef0d92c	-0.4704069
134	0xbd56ff53	-0.05248959
135	0x3d6aba91	0.05730683
136	0xbe5b1dd9	-0.21398105
137	0xbe8c3802	-0.2738648
138	0xbf8f9e8b	-1.1220258
139	0xbe114526	-0.14186534
140	0x3f62acee	0.8854512
141	0xbf40ca40	-0.7530861
142	0xbd651148	-0.055924684
143	0xbf103a82	-0.56339276
144	0xbed6db8a	-0.4196437
145	0x3d92b3b4	0.07163182
146	0x3d416c80	0.047222614
147	0x3d5f5e61	0.054533366
148	0xbf087c89	-0.53315026
149	0x3e874183	0.2641717
150	0xbe11f821	-0.1425481
151	0x3e468a75	0.19388755
152	0xbdccb31f	-0.09995102
153	0xbe1d2420	-0.15345812
154	0xbe30a2e5	-0.1724964
155	0xbf217d11	-0.6308146
156	0xbdf4bc55	-0.11949984
157	0xbe64aa23	-0.22330527
158	0xbefb2959	-0.49054983
159	0x3cd18eae	0.02558073
160	0x3df7a707	0.12092405
161	0x3d8b2b4e	0.06795369
162	0xbe64ef84	-0.22356993
163	0xbe0593fe	-0.13044736
164	0xbe5ec9cb	-0.21756665
165	0x3e1a6346	0.15076932
166	0xbd261756	-0.0405496
167	0xbe34a8cf	-0.1764252
168	0xbf00dd6a	-0.5033785
169	0x3d5cad69	0.053876314
170	0xbed31ae6	-0.4123146
171	0x3de959d2	0.11394085
172	0x3ef41bfd	0.47677603
173	0xbd4f49ac	-0.05060737
174	0xbee2faef	-0.44332072
175	0x3c2fcc3d	0.010729847
176	0x3da5d372	0.080969706
177	0xbe00cfe4	-0.12579304
178	0x3e6a3d9b	0.22875063
179	0xbf1aab2b	-0.6041743
180	0x3f20672a	0.62657416
181	0xbda73f9e	-0.08166431
182	0x3e535c1b	0.20640604
183	0xbf2e47ab	-0.68078107
184	0xbf4bb1e2	-0.795683
185	0xbe15d1ea	-0.14630857
186	0xbe9f9726	-0.31170005
187	0xbf75f012	-0.96069443
188	0x3f8ddd74	1.1083207
189	0xbeb027c4	-0.3440534
190	0xbf6903a4	-0.9102118
191	0xbde096c2	-0.10966255
192	0x3cf0a6cd	0.029376412
193	0xbf26a7a9	-0.6509958
194	0xbe6b640b	-0.22987382
195	0xbeada99d	-0.33918467
196	0x3f051327	0.5198235
197	0xbef26674	-0.4734379
198	0xbe343a9f	-0.17600487
199	0x3e55e1ea	0.2088696
200	0xbcd68477	-0.026186211
201	0xbe8940b8	-0.2680719
202	0x3d335db2	0.043790527
203	0xbe63716b	-0.22211234
204	0xbf1a86b1	-0.6036177
205	0xbea788d5	-0.32721582
206	0xbea17a08	-0.31538415
207	0xbeebf8b4	-0.46088183
208	0x3df31323	0.118688844
209	0xbf04d664	-0.51889634
210	0xbed47424	-0.41494858
211	0xbd4de02e	-0.050262623
212	0xbeabe771	-0.33575013
213	0xbe87e693	-0.26543102
214	0xbe101224	-0.1406942
215	0xbc893ed7	-0.016753597
216	0xbe0c5596	-0.13704523
217	0x3d7cb017	0.06169137
218	0x3e6fb212	0.23407772
219	0xbf312b8b	-0.69207066
220	0xbf2a334c	-0.6648452
221	0x3ecabe92	0.3959852
222	0xbeeca11d	-0.4621667
223	0xbea93063	-0.3304473
224	0xbf2e4bd3	-0.6808445
225	0x3e9afbca	0.30270225
226	0xbf03e593	-0.5152218
227	0xbeeeb81f	-0.46624848
228	0xbe3ecd54	-0.18633014
229	0xbe0a727e	-0.13520238
230	0xbeb76b35	-0.3582398
231	0x3e196435	0.14979632
232	0xbeb37a83	-0.35054407
233	0xbdcfdd32	-0.101496115
234	0xbd905877	-0.07048123
235	0x3d97f08c	0.074189276
236	0xbd9a11b1	-0.075229056
237	0xbe8a9a82	-0.27071005
238	0xbe84c401	-0.2593079
239	0xbed0b435	-0.40762487
240	0xbcbe2b0f	-0.023213891
241	0x3e2cb0b6	0.16864285
242	0x3ebe9386	0.37221926
243	0xbdee56d0	-0.11637652
244	0xbd8563e4	-0.06513193
245	0xbe4980e2	-0.19678071
246	0xbd5cd5cd	-0.053914834
247	0xbefecb2a	-0.49764377
248	0xbc3afbe1	-0.011412592
249	0x3e43a0d4	0.1910432
250	0xbdb71152	-0.089388505
251	0xbd0a9ddd	-0.033841956
252	0xbf2e25b7	-0.680263
253	0xbeeecd8b	-0.46641192
254	0x3e6ee684	0.23330122
255	0xbf107916	-0.5643476

policy.linear1.bias f4 [256]
0	0xbdfdc8db	-0.12391826
1	0xbdc3d1dc	-0.09561512
2	0x3ea2f8c3	0.31830415
3	0x3dc0a258	0.094059646
4	0x3d12ef23	0.03587259
5	0xbf66bb69	-0.90129715
6	0xbe86a4c4	-0.2629758
7	0x3e20ef23	0.15716223
8	0xbf321bbf	-0.6957359
9	0x3dc9f561	0.098612554
10	0x3ed18361	0.40920547
11	0xbd5476c7	-0.051871087
12	0xbe8dc74d	-0.27691117
13	0xbf1acfa2	-0.6047307
14	0xbe335ff8	-0.17517078
15	0xbf0d1421	-0.5510884
16	0x3f10b893	0.5653164
17	0x3e6476d6	0.22310957
18	0x3f01b0e3	0.5066053
19	0x3ec9031c	0.39260185
20	0xbe0a73f5	-0.13520797
21	0x3e8b96da	0.27263528
22	0x3d886896	0.06660573
23	0x3e610361	0.21973945
24	0xbe88b45a	-0.26700097
25	0x3f2ac5c6	0.6670803
26	0xbef7f862	-0.4843169
27	0x3ed0df18	0.40795207
28	0x3f126828	0.5719018
29	0xbe30a53c	-0.17250532
30	0xbf135076	-0.5754465
31	0xbf1c8400	-0.61138916
32	0x3eb3f4fa	0.3514784
33	0xbf742769	-0.95372635
34	0xbc37adc0	-0.011210859
35	0x3ee3f243	0.4452077
36	0xbf9221e2	-1.141659
37	0x3ee9905a	0.45617944
38	0xbf308b4b	-0.68962544
39	0xbefc9253	-0.49330387
40	0xbf85875f	-1.0431937
41	0xbeb1775f	-0.34661385
42	0xbf812451	-1.0089208
43	0xbe668462	-0.22511438
44	0xbdb525ec	-0.08845124
45	0xbf8f0018	-1.1171904
46	0xbe8acfa9	-0.27111557
47	0xbd951257	-0.07278889
48	0xbf50a084	-0.8149493
49	0x3deebb6a	0.1165684
50	0xbf70164b	-0.93784016
51	0xbf0b8ab3	-0.54508513
52	0xbf9013be	-1.1256025
53	0x3e983019	0.29724196
54	0xbf423aa9	-0.7587076
55	0x3f3a3d91	0.7275019
56	0xbf781195	-0.9690183
57	0xbf6229ce	-0.8834504
58	0x3f181a3d	0.59415036
59	0xbf4439e8	-0.7665086
60	0x3e83c6d5	0.25737634
61	0x3e52f7f3	0.20602398
62	0xbf0fc306	-0.5615696
63	0x3f051203	0.5198061
64	0x3eaf4a92	0.3423658
65	0xbe0282cf	-0.12745212
66	0xbf84a310	-1.0362263
67	0x3dd17835	0.10228006
68	0xbf27f81f	-0.6561298
69	0x3daa6c23	0.08321407
70	0xbd18f626	-0.03734412
71	0xbec1d362	-0.37856585
72	0xbda78b44	-0.0818086
73	0xbf9ae2c1	-1.210045
74	0xbb2e884e	-0.0026631537
75	0xbf922f29	-1.1420642
76	0xbf06fcce	-0.527295
77	0xbdb5892e	-0.088640556
78	0x3d9e308c	0.07724103
79	0xbd8f9f2b	-0.07012781
80	0x3ea0a20a	0.31373626
81	0xbf6f9059	-0.9357963
82	0xbf79d0c8	-0.975842
83	0xbe45f4ae	-0.19331619
84	0xbe9c00d6	-0.30469388
85	0xbb959c3a	-0.004565743
86	0xbf6717b4	-0.90270543
87	0x3e03878c	0.12844676
88	0x3d96f86b	0.07371601
89	0x3eb53f2a	0.35399753
90	0x3e2bb92d	0.16769858
91	0xbaf48b16	-0.0018657173
92	0xbf3d812b	-0.7402522
93	0xbf99862f	-1.1994075
94	0xbe982910	-0.29718828
95	0x3df82569	0.121165104
96	0xbf1d0e23	-0.61349696
97	0xbe4b908a	-0.19879356
98	0xbc96fb41	-0.018430354
99	0xbeb3193f	-0.349802
100	0xbe051ece	-0.13000032
101	0xbf91b914	-1.1384606
102	0xbf150a44	-0.5821879
103	0x3e196a12	0.14981869
104	0xbf638260	-0.8887081
105	0x3c57df88	0.013175853
106	0x3eaeea21	0.34163
107	0xbf54e596	-0.8316282
108	0xbe409b75	-0.18809302
109	0xbd64d133	-0.05586357
110	0x3f6633a8	0.8992257
111	0x3e31e070	0.17370772
112	0x3e3eff91	0.18652178
113	0xbf2ec666	-0.6827148
114	0x3e9224c1	0.28543666
115	0x3f5021b6	0.8130144
116	0xbd68e891	-0.056862418
117	0xbd4a6392	-0.049411364
118	0xbf5e3154	-0.8679402
119	0xbf746c91	-0.9547816
120	0x3f296abf	0.66178507
121	0xbe36e952	-0.17862442
122	0xbe663407	-0.22480784
123	0xbe2cca65	-0.16874082
124	0xbf8bd216	-1.0923488
125	0xbf74271e	-0.9537219
126	0xbecd1ef0	-0.40062666
127	0xbf01dda5	-0.5072883
128	0xbd9f4a46	-0.077778384
129	0x3e937f59	0.28808096
130	0x3e75741a	0.2397007
131	0xbee47827	-0.4462292
132	0x3e753a31	0.2394798
133	0x3ed91979	0.42402247
134	0xbec2d8fc	-0.3805617
135	0x3ea12719	0.31475142
136	0x3f01bcaa	0.50678504
137	0x3d229649	0.039694104
138	0xbf5c3aa9	-0.8602701
139	0xbe815b13	-0.25264797
140	0x3ec132f4	0.37734187
141	0xbf84d57b	-1.0377649
142	0xbf98541b	-1.1900667
143	0xbf860311	-1.0469686
144	0x3be01c41	0.0068393056
145	0xbf105ce4	-0.5639174
146	0xbde60065	-0.11230544
147	0xbf1f278a	-0.62169707
148	0x3ecdd7c2	0.40203673
149	0x3e4870b2	0.1957424
150	0xbe057989	-0.13034643
151	0xbf2b6a34	-0.6695893
152	0xbf05e09c	-0.5229585
153	0x3eba6111	0.3640218
154	0xbe9f7a3a	-0.3114794
155	0x3ef90ef1	0.48644212
156	0xbf427f9a	-0.75975955
157	0xbf4ac95e	-0.7921351
158	0x3d02c80d	0.031929065
159	0xbf87257b	-1.0558313
160	0xbf315f17	-0.6928572
161	0x3e91ac84	0.2845193
162	0xbc99b4bc	-0.018762939
163	0xbe88a95d	-0.26691714
164	0x3e011b5d	0.12608095
165	0xbf50a80f	-0.8150644
166	0x3e7c4ce3	0.24638705
167	0x3f389a09	0.7211004
168	0xbdaedb41	-0.08537913
169	0xbecc1287	-0.39857885
170	0x3f14ddee	0.5815114
171	0x3c8d9450	0.017282635
172	0x3f00eb56	0.50359094
173	0x3e87b32e	0.2650389
174	0xbe2fbe62	-0.17162469
175	0xbf813f87	-1.0097512
176	0xbf410e2a	-0.7541224
177	0x3bbc9c6b	0.005755951
178	0x3c79f3f2	0.015255915
179	0x3cf0c30f	0.029389886
180	0xbe1a78e3	-0.15085177
181	0x3ebe1b92	0.3713041
182	0xbd8dabd0	-0.06917536
183	0xbe83b80a	-0.25726348
184	0x3def1825	0.11674527
185	0xbda808d2	-0.08204807
186	0xbe2611a2	-0.16217664
187	0xbf851ebf	-1.0400008
188	0x3f23620d	0.6382149
189	0x3e88e8b3	0.26740035
190	0x3c2d246b	0.010567765
191	0x3f136a15	0.57583743
192	0xbe2c3d68	-0.168203
193	0xbe2b1325	-0.16706522
194	0xbf25daa0	-0.6478672
195	0xbec6b1df	-0.3880758
196	0xbf8270f0	-1.0190716
197	0xbeb16388	-0.3464625
198	0x3c93c8e3	0.018040126
199	0x3f4da661	0.80332
200	0xbcc62a70	-0.024190158
201	0xbf38d830	-0.72204876
202	0xbf545e6e	-0.8295659
203	0xbf721106	-0.94557226
204	0xbf7765de	-0.9663981
205	0xbe819c55	-0.25314584
206	0xbf1cbb48	-0.6122327
207	0xbcfe5597	-0.031046672
208	0x3f004cf3	0.50117415
209	0xbec5dc9d	-0.38644877
210	0xbf5e0533	-0.86726683
211	0xbdcf123d	-0.101109006
212	0xbe9e0071	-0.30859712
213	0x3e138723	0.1440702
214	0xbed309c1	-0.4121838
215	0xbf38a4cf	-0.7212648
216	0x3f0a46a4	0.5401404
217	0xbe896d94	-0.26841414
218	0xbf01232c	-0.50444293
219	0x3e383e3f	0.17992495
220	0xbf51d08e	-0.81958854
221	0xbf6b7198	-0.91970205
222	0xbeedaaa6	-0.46419257
223	0xbc6ca41d	-0.0144434245
224	0x3e35d3cb	0.17756574
225	0x3f1d634f	0.6147966
226	0xbca3642f	-0.019945232
227	0xbf016c6a	-0.5055605
228	0xbf8f650c	-1.1202712
229	0xbf47bec1	-0.7802544
230	0xbed12710	-0.40850115
231	0x3d2cf4c1	0.042225603
232	0x3e5a3c9d	0.21312185
233	0x3ecf9b69	0.40548256
234	0xbf37618e	-0.7163323
235	0xbdc6f849	-0.097153254
236	0xbecc59c9	-0.3991225
237	0xbd1b5c8d	-0.03793006
238	0xbf3958c1	-0.7240105
239	0x3dbd3457	0.09238499
240	0xbf21cb66	-0.63200986
241	0xbc32cde9	-0.010913351
242	0x3e9e8fa5	0.30968967
243	0xbb959ad0	-0.004565574
244	0x3f0fab56	0.5612081
245	0xbf2ece64	-0.6828368
246	0x3daf3a35	0.08556024
247	0x3d202c57	0.039104786
248	0xbdc79dc7	-0.097468905
249	0x3e335eea	0.17516676
250	0xbd05ac65	-0.03263511
251	0xbf9d3ffb	-1.228515
252	0xbf91ed34	-1.1400514
253	0x3d739712	0.059470244
254	0xbf42e063	-0.76123637
255	0x3f282ae9	0.65690476

policy.critic_linear.weight f4 [1, 256]
0	0xc03ebad3	-2.9801528
1	0xbeb7cba2	-0.35897547
2	0xbe77f545	-0.24214657
3	0xbe659980	-0.22421837
4	0xbe96b0ac	-0.29431665
5	0x3e102ed2	0.1408036
6	0xbed3ac95	-0.41342607
7	0xbec6df06	-0.38842028
8	0x3d249ac1	0.040186647
9	0xbf3a330e	-0.72734153
10	0xbf0d3fe7	-0.5517563
11	0x3cf929f7	0.030415518
12	0xc01dc118	-2.4649105
13	0x3edd95df	0.43278405
14	0x3e260ad1	0.16215064
15	0x3eef050b	0.46683535
16	0xbd60265c	-0.054724082
17	0xbeed3ae8	-0.46334004
18	0xbea06b34	-0.3133179
19	0xbedbc615	-0.42924562
20	0xbef167d6	-0.47149533
21	0xbe3fb184	-0.1872006
22	0xbeda9e32	-0.42698818
23	0xbea7970a	-0.3273242
24	0x3e9158ba	0.28388005
25	0xbe955b98	-0.29171443
26	0x3d4d6504	0.050145164
27	0xbf0b0577	-0.54305214
28	0xbf0b1399	-0.5432678
29	0xbcec11fd	-0.028817171
30	0x3ce5527f	0.027993439
31	0x3e09a90a	0.1344339
32	0xbf0c8380	-0.54888153
33	0x3ed30ce8	0.41220784
34	0xbf11e5cb	-0.5699126
35	0xbee78262	-0.45216662
36	0x3ed64e6d	0.4185671
37	0x3dae1a06	0.08501057
38	0x3e86366e	0.26213402
39	0x3ea3abeb	0.319671
40	0x3efb475d	0.49077883
41	0x3e979b3f	0.2961063
42	0x3e43d057	0.19122444
43	0xbd9a41db	-0.07532092
44	0xbef642a2	-0.48097712
45	0x3d8f9cd4	0.070123345
46	0x3ec91f98	0.39281917
47	0xbf124a58	-0.5714469
48	0x3dd6bbc3	0.104850315
49	0xbf2a223d	-0.66458493
50	0x3dbfc010	0.09362805
51	0x3ef9684f	0.48712394
52	0x3eb8130e	0.35952038
53	0xc04f9bb1	-3.2438776
54	0x3d980367	0.07422524
55	0xbea1b9af	-0.31586978
56	0x3e27dfce	0.16393968
57	0x3ece86ff	0.4033737
58	0xbfcb4263	-1.5879635
59	0x3e7cb865	0.24679716
60	0xbd3385ad	-0.043828655
61	0xbe01029d	-0.12598653
62	0x3e4d6a49	0.20060076
63	0xbe0b6ba3	-0.13615279
64	0xbfa28b04	-1.2698674
65	0xbefa0577	-0.48832294
66	0x3dd96712	0.10615362
67	0xbeac8c50	-0.337008
68	0x3e9271df	0.28602502
69	0xbe8a1f63	-0.2697707
70	0xbf0eddd6	-0.55807245
71	0x3e11f20a	0.14252487
72	0xbed7654e	-0.42069477
73	0x3ed05b39	0.40694597
74	0xbef54087	-0.47900793
75	0x3ec7543a	0.38931447
76	0x3f2bbe5f	0.6708736
77	0xbcb8ec1e	-0.022573527
78	0xbe326203	-0.17420201
79	0xbeffa54f	-0.49930808
80	0x3b00a5e1	0.0019630122
81	0x3e9825e3	0.29716405
82	0x3dae9bcf	0.08525812
83	0xbf02802b	-0.5097682
84	0xbe10ac53	-0.14128236
85	0xbfa6adea	-1.3021824
86	0x3dcfc090	0.1014415
87	0xbeee204e	-0.46509022
88	0xbede561d	-0.43425074
89	0xbd853d66	-0.065058514
90	0xbf17d870	-0.5931463
91	0xbef4d90c	-0.47821844
92	0x3f87e793	1.0617546
93	0x3ef48e86	0.47764987
94	0xbf3aefd7	-0.73022217
95	0xbf01733e	-0.5056647
96	0x3e2bce44	0.16777903
97	0x3d78004a	0.06054715
98	0xbe0605a0	-0.13088083
99	0x3ee07fb4	0.4384743
100	0xbda437ab	-0.0801843
101	0x3efbb00a	0.49157745
102	0x3e08ed67	0.13371812
103	0xbf01998b	-0.5062491
104	0x3e424696	0.18972239
105	0xbf64ec3e	-0.89422977
106	0xbe555890	-0.20834565
107	0x3f048074	0.51758504
108	0xbf245bed	-0.6420277
109	0xbf41b2ae	-0.7566327
110	0xbdc3075a	-0.095228866
111	0xbf0b06e8	-0.54307413
112	0xbe277b98	-0.16355741
113	0x3da5e970	0.08101165
114	0x3e23260a	0.1593248
115	0xbe96632e	-0.29372543
116	0xbf367a16	-0.7128004
117	0x3c52a436	0.012856534
118	0x3e864337	0.26223156
119	0x3d96cd90	0.07363427
120	0xbedcb546	-0.4310705
121	0x3d89059a	0.066905215
122	0x3e51b3c3	0.2047873
123	0xbedb1afc	-0.42794025
124	0x3f78d4e6	0.9719986
125	0x3e7a2d43	0.24431328
126	0x3f19554f	0.59895796
127	0x3e49099a	0.19632569
128	0xbefb9202	-0.49134833
129	0xbe2592ef	-0.16169332
130	0xbfa3aac6	-1.2786491
131	0x3d9c7325	0.076391496
132	0xbf68d7ba	-0.9095417
133	0xbe368095	-0.17822488
134	0x3e82f62d	0.25578442
135	0xbf66d9d8	-0.90176153
136	0xbeb4be4b	-0.35301432
137	0xbf2d61a9	-0.6772714
138	0x3f0a7a1a	0.5409256
139	0x3ef07a5a	0.46968347
140	0xbe524420	-0.205338
141	0x3eaeb6c9	0.3412383
142	0x3e9e8880	0.30963516
143	0x3ed01209	0.4063876
144	0x3dea748d	0.114480115
145	0x3e4c743b	0.19966213
146	0x3ece6b7b	0.40316376
147	0x3dcf8e0d	0.10134516
148	0xbd004f52	-0.031325646
149	0xbf6ac147	-0.9170117
150	0xbea4616d	-0.3210558
151	0x3ed53603	0.4164277
152	0x3ef97637	0.48723003
153	0xbea83511	-0.32852986
154	0xbf181226	-0.5940269
155	0xbf2b616f	-0.66945547
156	0x3eb23526	0.34806174
157	0x3ea0d626	0.31413382
158	0x3cc8ba95	0.024503032
159	0x3ed3516f	0.41273066
160	0x3ee60c3e	0.44931215
161	0xbc66df54	-0.0140913315
162	0x3bc4985a	0.005999607
163	0x3e23e29d	0.16004415
164	0xbe950f5c	-0.2911328
165	0x3e0e0a8b	0.1387121
166	0xbfa1d26a	-1.2642338
167	0xbe213e97	-0.15746532
168	0xbccc2ca2	-0.024923626
169	0x3f0f007c	0.55860114
170	0x3cf13604	0.029444702
171	0xbeb6272b	-0.35576758
172	0xbf0e2baf	-0.55535406
173	0xbf034add	-0.5128611
174	0x3e6e522f	0.23273538
175	0x3eb5abfa	0.3548277
176	0x3ecb18ae	0.39667267
177	0xbe8d521c	-0.27601707
178	0x3ed10e8d	0.40831414
179	0xbe915eee	-0.28392738
180	0x3ea3861c	0.31938255
181	0xbe935d20	-0.28781986
182	0xbf0e80de	-0.55665386
183	0x3ea0df5c	0.3142041
184	0xbe7a1aa6	-0.24424228
185	0xbed49684	-0.41521084
186	0x3e6ad6e3	0.22933535
187	0x3d738ffa	0.05946348
188	0xbf3886f2	-0.7208091
189	0xbdfcac94	-0.12337604
190	0xbe71de8b	-0.2362005
191	0xbeac4cc2	-0.33652312
192	0x3efd23db	0.49441418
193	0xc0035f43	-2.0526893
194	0x3d417813	0.047233652
195	0x3f73f7fa	0.9530026
196	0x3f1f9036	0.62329423
197	0x3e27ee3b	0.16399471
198	0xbee4a559	-0.446574
199	0xbe32fbe1	-0.17478897
200	0xbf06f62f	-0.52719396
201	0x3f360612	0.7110301
202	0x3e69e81a	0.22842446
203	0x3e493629	0.19649567
204	0x3e6589fe	0.22415921
205	0x3f637d4b	0.88863057
206	0x3ef8db24	0.4860469
207	0xbee32ccb	-0.44370112
208	0xbe6b98f1	-0.23007561
209	0x3ccdb339	0.025109874
210	0x3e83e296	0.2575881
211	0x3e034232	0.1281822
212	0x3d004835	0.031318862
213	0x3e02ae25	0.12761743
214	0x3e169ae0	0.14707518
215	0x3d216507	0.039402988
216	0xbea0751c	-0.31339347
217	0xbe867ae3	-0.2626563
218	0x3e6a547d	0.22883792
219	0xbedff6a4	-0.4374286
220	0x3ee5922b	0.4483808
221	0x3da1e575	0.079050936
222	0x3e72cbb1	0.23710515
223	0xbcecd3b6	-0.028909545
224	0xbf4120a7	-0.7544045
225	0xbde78c69	-0.11306078
226	0x3c21f774	0.009885658
227	0x3db09736	0.08622591
228	0x3efd6512	0.49491173
229	0x3df219c2	0.11821319
230	0x3e4a56ef	0.19759725
231	0xbf49a238	-0.7876315
232	0xbf3966b1	-0.7242232
233	0xbeee22dc	-0.4651097
234	0x3dbf3705	0.09336666
235	0xbda5be4c	-0.08092937
236	0x3da1d891	0.07902635
237	0xbe4ef253	-0.20209627
238	0x3f33a861	0.701788
239	0xbcd0895c	-0.025456123
240	0x3f0cc081	0.5498124
241	0xbed91c7e	-0.4240455
242	0xbd4c1462	-0.049824126
243	0x3e34e112	0.17663983
244	0xbec66c38	-0.3875444
245	0x3e6942bc	0.22779363
246	0xbecdba3e	-0.40181154
247	0xbe8fa0da	-0.28052408
248	0xbe536c93	-0.20646887
249	0xbf1cd702	-0.61265576
250	0x3e62c68b	0.2214605
251	0x3e960d4b	0.29307017
252	0x3dde4261	0.108525045
253	0x3dbe84ad	0.0930265
254	0x3f0646a0	0.52451515
255	0xbf8b1869	-1.0866824

policy.actor_linear.weight f4 [5, 256]
0	0xbf352a7e	-0.7076796
1	0x3f74fd8f	0.956994
2	0xbdac1ba1	-0.08403707
3	0x3ee9e0ac	0.45679224
4	0x3f542345	0.8286632
5	0x3e7bc255	0.2458585
6	0x3efb7ff1	0.4912105
7	0x3eeeef7b	0.46667084
8	0x3f0c56ed	0.5482014
9	0xbe63e64e	-0.22255823
10	0x3ea5131e	0.32241148
11	0x3d3e05cb	0.046392243
12	0x3e426373	0.1898325
13	0x3f0513cf	0.5198335
14	0x3f360115	0.710954
15	0x3f9a217f	1.2041472
16	0x3ef7ff00	0.48436737
17	0x3e0e7db7	0.13915144
18	0xbf6715c1	-0.9026757
19	0xbf0da354	-0.55327344
20	0x3f19d86e	0.6009587
21	0xbe8b2885	-0.2717935
22	0x3eb7cc26	0.3589794
23	0xbf0e16ac	-0.55503345
24	0x3ed7e98e	0.42170376
25	0x3f35ca31	0.71011645
26	0x3f14974e	0.5804337
27	0x3e036ea4	0.12835175
28	0x3edd3333	0.43203124
29	0x3f008de5	0.50216514
30	0x3eacd342	0.33754927
31	0x3f370576	0.7149271
32	0xbf85bc4b	-1.0448087
33	0x3f0bfac7	0.5467953
34	0x3f12c465	0.57330924
35	0x3e5f84c3	0.21827988
36	0x3cf80a94	0.030278482
37	0x3e20a9ac	0.15689725
38	0x3ea59ef9	0.3234785
39	0x3f6ce138	0.92531157
40	0x3fa4d963	1.2878841
41	0x3f2032ae	0.6257733
42	0x3f56d3e5	0.83917075
43	0x3efc106d	0.49231282
44	0x3f16c935	0.5890077
45	0x3f551c58	0.83246374
46	0x3f024c2b	0.50897473
47	0xbef8ae49	-0.4857047
48	0x3eba0faa	0.36340076
49	0x3f5fc850	0.8741503
50	0x3f3afa79	0.7303844
51	0x3f92a23a	1.1455758
52	0x3fa13ddd	1.2597004
53	0x3ecb36ce	0.3969025
54	0x3e58a6b4	0.21157342
55	0x3eafee4b	0.3436149
56	0x3e3620ac	0.17785901
57	0x3fd77eb6	1.6835544
58	0xbdde2069	-0.108460255
59	0x3eee4941	0.46540263
60	0xbdc3b46f	-0.09555899
61	0x3ecb994f	0.39765403
62	0x3f6dc9f2	0.9288627
63	0x3f2eddb8	0.68307066
64	0xbd8edaa5	-0.06975297
65	0xbe278e14	-0.16362792
66	0x3f4eb8d1	0.8075076
67	0xbe38ed0d	-0.18059178
68	0x3f5941ed	0.8486622
69	0x3f3c631b	0.7358872
70	0x3e3bcbc7	0.18339454
71	0x3efb6436	0.49099892
72	0x3ef516f4	0.47869074
73	0x3eb50dee	0.3536219
74	0xbf4cd845	-0.800175
75	0x3e425aec	0.18979996
76	0x400da1d4	2.2130022
77	0x3f24088f	0.6407556
78	0xbf00053f	-0.50008005
79	0x3e1740ed	0.14770861
80	0x3e745665	0.23861082
81	0xbd526853	-0.051369023
82	0x3f0da82a	0.55334723
83	0x3f969faa	1.1767476
84	0x3f4725fa	0.7779232
85	0x3dfa8ccb	0.122338854
86	0xbe62ddbb	-0.22154896
87	0x3ec7c514	0.39017546
88	0x3f248c0a	0.6427618
89	0xbf82d8bb	-1.0222391
90	0xbd4222df	-0.047396537
91	0xbe07f6ab	-0.1327769
92	0x3fac0dcb	1.3441709
93	0x3eef8271	0.46779206
94	0xbeec3df6	-0.46141022
95	0xbe5ee5c6	-0.21767339
96	0x3c8e16d8	0.017344877
97	0x3ecbea79	0.39827326
98	0x3edcb2f9	0.43105295
99	0x3f183b0f	0.59465116
100	0x3f118941	0.5685006
101	0x3f4a0b4f	0.78923506
102	0x3e168dd8	0.14702547
103	0x3f12bcd3	0.5731937
104	0x3f7f916f	0.9983129
105	0xbf23b8d2	-0.6395389
106	0x3e118b5c	0.14213318
107	0x3ddd7460	0.108132124
108	0xbd52cebb	-0.051466685
109	0xbf543b9a	-0.82903445
110	0x3f629353	0.8850605
111	0xbea0330e	-0.31288952
112	0x3ef0e453	0.47049198
113	0x3ee02c6a	0.43783885
114	0x3f0a9b9c	0.5414369
115	0xbdc90577	-0.098154955
116	0xbe184a20	-0.14872026
117	0x3d875d64	0.0660961
118	0x3f1ad64c	0.6048324
119	0x3f06ed14	0.527055
120	0xbe8a5327	-0.27016565
121	0x3f00900f	0.50219816
122	0x3ef58553	0.4795328
123	0xbce81917	-0.028332276
124	0x3fdd695d	1.7297779
125	0x3eff3d41	0.4985142
126	0x3f1fbf4d	0.62401277
127	0xbefb4cec	-0.49082124
128	0xbe9fe02a	-0.3122571
129	0x3e936bd3	0.287932
130	0xbe1ef4fa	-0.15523139
131	0x3e930143	0.287119
132	0xbf0a96db	-0.5413644
133	0x3e26d4ad	0.16292067
134	0x3f3c1b50	0.73479176
135	0xbf06035f	-0.52348894
136	0xbdc75c28	-0.09734374
137	0x3f6bbdf2	0.9208671
138	0x3f705824	0.9388449
139	0x3faf3f43	1.3691181
140	0x3eb8a948	0.3606665
141	0x3f9634a0	1.173481
142	0x3f960ab9	1.1722022
143	0x3f013b33	0.50480956
144	0x3f0249c5	0.50893813
145	0x3f2fd59a	0.68685305
146	0x3f68cf67	0.9094147
147	0x3f8aea6a	1.0852787
148	0x3f1841aa	0.59475195
149	0x3e5cf63a	0.21578303
150	0x3efcab40	0.49349403
151	0x3f91bf62	1.138653
152	0x3eab5fe4	0.33471596
153	0x3e872b10	0.26400042
154	0x3db92cad	0.09041724
155	0xbf5f16c9	-0.8714414
156	0xbe9ad9f3	-0.30244407
157	0x3f53306a	0.8249575
158	0x3f426cf5	0.75947505
159	0x3e8435bb	0.25822243
160	0x3ee7ae67	0.45250246
161	0x3f2e803b	0.68164414
162	0x3e500f82	0.20318416
163	0x3ec0e0eb	0.376716
164	0xbd3cb402	-0.046070106
165	0x3ee9ffca	0.45702964
166	0x3df5b991	0.119982846
167	0xbced2f5a	-0.028953243
168	0xbd1a2d4d	-0.03764086
169	0x3fafc741	1.3732682
170	0xbe7cd1e4	-0.24689442
171	0x3ee1ddf5	0.44114652
172	0xbecea22b	-0.403581
173	0x3dd4360c	0.10361871
174	0x3e1414c5	0.14461048
175	0x3f71cb45	0.9445079
176	0x3d910ef9	0.07082934
177	0x3f0e083e	0.55481327
178	0x3f3bf20a	0.734162
179	0x3e2aa623	0.16664939
180	0x3f24d930	0.643939
181	0x3e5fbaff	0.21848677
182	0xbfbe1822	-1.4851115
183	0x3f7aa330	0.97905254
184	0xbe83108d	-0.25598565
185	0x3dfdfe46	0.124020144
186	0x3f391700	0.7230072
187	0x3ef53409	0.47891262
188	0x3ed7f32a	0.42177707
189	0x3ea21db5	0.3166329
190	0x3e54a1cb	0.20764844
191	0x3ed0201b	0.40649495
192	0x3f7eaa6c	0.99478793
193	0xbe825171	-0.2545276
194	0x3f0afc18	0.54290915
195	0x3f809e30	1.0048275
196	0x40025883	2.0366523
197	0x3f631c02	0.8871461
198	0x3ed0a3fe	0.40750116
199	0x3f5db0b4	0.8659775
200	0x3eb2510b	0.34827456
201	0xbd8d61d2	-0.06903423
202	0x3f4b4180	0.7939682
203	0x3ed7c0db	0.42139325
204	0xbecc14f2	-0.3985973
205	0x3fc3573a	1.5260994
206	0x3ecc1f94	0.39867842
207	0x3e9841fe	0.29737848
208	0x3e30ceb0	0.17266345
209	0x3e90b7a7	0.28265116
210	0x3f0ca2b7	0.54935783
211	0x3f3299e2	0.69766057
212	0x3e00592e	0.1253402
213	0x3f011c8a	0.5043417
214	0x3ea3a55b	0.31962094
215	0x3f590489	0.84772545
216	0x3d409c3c	0.047023997
217	0xbec099f8	-0.3761747
218	0x3f617ee5	0.8808425
219	0x3f4a1a97	0.7894682
220	0x3f29fde5	0.6640304
221	0x3df24ae5	0.11830691
222	0x3ebb0e58	0.3653438
223	0xbd888035	-0.066650786
224	0x3edf8979	0.4365957
225	0x3f21b1ad	0.63161737
226	0x3f0519d2	0.51992524
227	0x3e441fe0	0.19152784
228	0x3f935c6b	1.1512579
229	0x3ec7d264	0.39027703
230	0x3f488091	0.78321177
231	0xbecb5eab	-0.39720663
232	0xbee92921	-0.4553919
233	0x3f65b340	0.8972664
234	0xbdb89673	-0.09013071
235	0x3e969bc6	0.2941572
236	0x3c1c116f	0.009525641
237	0x3f430c3a	0.7619053
238	0x3f412776	0.7545084
239	0xbd58dfe1	-0.052947883
240	0x3f07a840	0.52991104
241	0xbe2df9e9	-0.16989864
242	0x3f2294d3	0.6350834
243	0x3eb57105	0.3543779
244	0x3e9f775d	0.31145754
245	0x3f35843e	0.7090491
246	0x3eb07923	0.3446742
247	0xbccff0eb	-0.025383433
248	0x3ec8e91f	0.39240357
249	0x3e1aa453	0.15101747
250	0x3ee6b2f0	0.45058393
251	0x3d04bdec	0.032407686
252	0x3ea5596c	0.32294786
253	0x3f15fba3	0.5858709
254	0x3ef76166	0.48316497
255	0xbd415f58	-0.047210068

policy.actor_linear.bias f4 [5]
0	0xbeb30485	-0.34964386
1	0x3f5b7c7b	0.8573682
2	0x3ec1a5e0	0.37821865
3	0x3f8b1650	1.0866184
4	0x3f044e80	0.5168228
